assets/prediction_model/symptom_checker_model.tflite (tflite, 113884 bytes, 6 tensors)

arith.constant f4 [41, 64]
000000 0a 33 ba be cf de 07 3e 3b 2e ad 3b 92 22 05 bf
       -0.36367065 0.13268588 0.005285052 -0.52005875
000010 d6 cc 2e bf 76 f5 99 3e 06 eb 5d 3e 3b 5b ec 3d
       -0.68281305 0.30070084 0.21671686 0.11540838
000020 cf 20 19 bf 25 06 04 3e 44 1b 82 be 86 50 21 be
       -0.59815687 0.12892969 -0.25411427 -0.15753374
000030 6d 72 56 3e 88 dc df be 60 1a 38 3e f4 81 1d bf
       0.20942087 -0.4372294 0.17978811 -0.6152642
000040 77 c3 22 bf 95 1d 06 3e 03 27 8e 3d 5a 07 e1 3c
       -0.63579506 0.13097222 0.06941035 0.027469326
000050 50 df 1d bf da 99 83 3e 4f 04 72 3d 64 39 18 3e
       -0.6166887 0.25703317 0.05908614 0.14865643
000060 de d4 d6 be 26 f5 5d 3e 66 60 1a 3e 34 7e 3d bf
       -0.4195928 0.21675548 0.15075836 -0.74020696
000070 96 cb 5b 3e 9a 72 a9 be f3 2f f1 be 96 25 0d bf
       0.2146438 -0.33095247 -0.47106895 -0.55135477
000080 a3 02 49 3e ac ce ce be 3f 98 7b 3e f0 18 b5 be
       0.19629912 -0.40392053 0.24569796 -0.35370588
000090 3c 96 5f be 72 cf b5 be ea de 0b 3e a4 71 00 bf
       -0.21834654 -0.3550983 0.13659254 -0.501734
0000a0 88 2d bb be 2c 01 9e 3e 35 59 84 be 16 d2 c3 be
       -0.36558175 0.3086027 -0.2584931 -0.3824622
0000b0 53 5e ac bd 84 a7 dc be 95 64 f2 3d 2d 8a 02 bf
       -0.084164284 -0.43096554 0.11835591 -0.5099209
0000c0 81 8b 02 3e 23 20 43 3d 74 72 32 bf 1c f5 3b 3e
       0.12748529 0.04763807 -0.6970589 0.1835522
0000d0 cc 12 5a be 4a 60 86 3d ae 94 04 3e ae be ef be
       -0.21296233 0.065613344 0.12947342 -0.46825165
0000e0 52 05 22 bf 4b 13 81 bd 1d cd 0d 3e e4 d7 d4 be
       -0.6328937 -0.06302508 0.13847776 -0.4157096
0000f0 88 4d 2f bd b6 b7 3f 3d 1f b2 0e bf d4 91 57 3e
       -0.04279855 0.04680606 -0.5574054 0.21051723
000100 c8 a5 4d 3e 73 e7 97 be 52 41 8f be 75 87 0b 3e
       0.20082772 -0.2966877 -0.27979523 0.13625892
000110 9b 27 b1 3d 0d 0f f9 3d 57 cc 09 bf f7 9a 59 3e
       0.08650132 0.12161074 -0.5382742 0.2125052
000120 3f c4 c3 be 50 fa 97 3d 69 8c 18 bf b5 9f 3f bf
       -0.3823566 0.0742079 -0.5958925 -0.7485307
000130 b2 35 49 3e 00 e0 88 3e 2f 31 d0 be d6 e5 94 3e
       0.1964939 0.26733398 -0.40662524 0.290816
000140 05 cc 0c bf 1b 54 d5 be e9 b9 0f be e9 00 58 be
       -0.5499881 -0.4166573 -0.14035763 -0.21094097
000150 ae 5f 85 be 5f d5 9c be 41 91 0c bf 3a 3c e0 be
       -0.2604956 -0.3063154 -0.5490914 -0.4379595
000160 7b f0 ec be 05 c9 20 bf d6 2f 34 3d 93 ea 2d bf
       -0.46277222 -0.6280673 0.043990932 -0.67936057
000170 ec 62 81 be 95 a2 2e bd 59 ed 3a 3e 77 24 4e 3e
       -0.25270784 -0.04263552 0.18254603 0.20131098
000180 d6 1e 82 3e 51 9f ab 3d 38 42 30 bd 98 37 70 3e
       0.2541415 0.083799966 -0.0430319 0.23458707
000190 2c 59 f7 be 1a fa a1 3e 0c 32 21 3e 17 48 e3 bb
       -0.4831022 0.31636125 0.15741748 -0.006936084
0001a0 10 38 ec be fc a1 04 3d 19 83 23 bf 26 fc d0 be
       -0.46136522 0.032381043 -0.63871914 -0.40817374
0001b0 21 c2 a5 bd 85 5b c3 3d 25 ee 13 bf 4a 65 47 3d
       -0.08093668 0.0953894 -0.57785255 0.04868058
0001c0 37 65 30 bf d0 bc 05 bf b0 11 6e 3e 70 81 00 be
       -0.6890444 -0.5224123 0.23248935 -0.12549376
0001d0 42 df 43 3e 6c c4 e3 3d 05 bc e5 be c6 f3 81 bd
       0.19128135 0.11121449 -0.4487001 -0.06345324
0001e0 e6 2a ef be 33 1a 7b 3e 78 a5 99 be 06 22 20 3e
       -0.46712416 0.24521713 -0.30009055 0.15637979
0001f0 66 c2 27 bf ab c3 98 3e 79 63 a7 3d f3 3e 5f 3d
       -0.65531003 0.29836783 0.0817327 0.054503392
000200 e8 34 e6 3d 23 48 1a 3e 90 5f f0 3d 56 53 44 3e
       0.1124056 0.1506658 0.11736977 0.19172415
000210 7a 55 31 bf 87 f8 73 be 81 e0 a5 bd c4 db 31 3e
       -0.6927105 -0.23825274 -0.08099461 0.1736899
000220 91 57 ed 3d f3 da 44 be 13 5e 7e 3e 17 84 9f be
       0.115889676 -0.19224147 0.24840574 -0.31155464
000230 18 07 01 bf e2 e6 34 bf 01 80 ae 3d 60 32 8f 3e
       -0.5040145 -0.706648 0.085205086 0.2796812
000240 b2 3b 1f bf d1 37 4c bd 11 fb 53 3e 44 25 3c bf
       -0.6220046 -0.04985792 0.20701243 -0.7349436
000250 fb bc 7b be 91 50 6e 3e bb 81 11 bf ac 6a 52 3e
       -0.24583809 0.23272921 -0.5683858 0.20548505
000260 82 10 08 3e ec dc 9e be d9 35 4a be be 5f 25 bf
       0.13287547 -0.31027925 -0.19747104 -0.64599216
000270 55 5c 24 bf e0 63 80 3e bc d6 2f 3e dc a3 af be
       -0.6420339 0.250762 0.17171758 -0.34304702
000280 da 6c a4 bc b6 54 02 bf cb 62 1e bf 06 bd bb be
       -0.020071436 -0.5091051 -0.61869496 -0.3666765
000290 4e f7 fa 3c 0e 5e 41 be 7d 30 7a 3e 44 ef b1 be
       0.030635502 -0.18883535 0.2443256 -0.34752858
0002a0 15 0d 5a bf 33 6b 45 bb 3d 54 53 bf 28 86 5c bf
       -0.8517621 -0.003012371 -0.8255041 -0.86142206
0002b0 12 98 17 3d 79 ad 05 bf 1f ff 05 3e 0e 2b 25 bf
       0.03701026 -0.52217823 0.13085602 -0.6451882
0002c0 8e e4 21 be e9 0b 0b bc 7a 63 ee bd a6 24 a4 be
       -0.15809843 -0.008486726 -0.116400674 -0.3205921
0002d0 7e d1 00 3e eb 8e 3d 3e f7 8a 43 be 69 56 57 3e
       0.12579915 0.1851155 -0.1909598 0.21029057
0002e0 d8 b9 ad 3e 56 c0 54 bd 6a ad 4b 3e 5f 2a 2a bf
       0.3393085 -0.05194124 0.19890371 -0.66470903
0002f0 96 88 3b 3e 35 67 1f bf 90 f6 17 be 95 5b a1 3d
       0.18313822 -0.62266856 -0.1484015 0.07878796
000300 5a c1 f8 be 81 ce 2c 3e f7 9b 08 bf 49 e3 3e 3e
       -0.48585016 0.1687565 -0.53362983 0.1864139
000310 02 af 07 bf 7f a3 86 3e 90 2c 68 3e c7 8b a0 be
       -0.53001416 0.26296613 0.22673249 -0.31356642
000320 37 a6 fe be 48 7e 6d be 80 6e 80 bf e7 46 c0 be
       -0.49736187 -0.23192704 -1.0033722 -0.37554094
000330 76 20 77 bd 81 17 3e 3e 9e 6f 61 3e f8 6c 57 3e
       -0.06033369 0.18563654 0.22015235 0.21037662
000340 93 51 dd be 64 d1 6c 3e 80 bc 00 3e d4 18 03 bf
       -0.432263 0.23126751 0.12571907 -0.5120976
000350 2c 3f 1c 3d 50 d5 22 be 3e 47 01 bf 02 8f a4 be
       0.038146183 -0.15901685 -0.5049933 -0.32140356
000360 d4 a2 84 3d e4 14 fb be bd 53 af 3d 72 5d 94 bd
       0.064763695 -0.49039376 0.08560894 -0.07244386
000370 08 6f eb be 00 4d 92 bd 66 95 cc be 18 d1 ab be
       -0.45983148 -0.07143593 -0.39957732 -0.33557963
000380 ec a1 15 bf 6f 13 b9 be 92 d1 85 3e df 08 2e bd
       -0.584502 -0.3614764 0.26136452 -0.04248893
000390 3f a1 4f 3e 28 b5 71 3c ba a2 ce be e7 63 e8 bd
       0.20276354 0.014752664 -0.40358526 -0.1134718
0003a0 44 3e d5 be fc ee 41 3e d9 c9 c5 3d ce c3 82 3e
       -0.41649067 0.18938822 0.0965764 0.25540012
0003b0 bd 85 4e 3e 6a 39 e4 bb d4 fd ce be 45 11 97 3e
       0.20168205 -0.006964852 -0.4042803 0.29505363
0003c0 93 f2 0f bd 2d 6d 21 3e 61 11 fb be c4 6f 51 be
       -0.035143446 0.15764304 -0.49036697 -0.20452791
0003d0 d0 a2 bc bd e5 a1 22 bf 35 d9 57 3e 68 73 3f 3e
       -0.092107415 -0.6352828 0.21078952 0.18696368
0003e0 28 fe b7 be 99 12 1f 3e d7 a8 ef be 57 3c c3 be
       -0.35936093 0.15534438 -0.46808502 -0.38131973
0003f0 35 47 5c be ff ce 3a bf b1 f9 f1 3d 39 37 a9 bb
       -0.21511538 -0.729721 0.11815203 -0.0051640538

arith.constant1 f4 [64, 128]
000000 32 70 1d be 4c c3 2d 3e 75 4f c1 3e b0 67 73 3e
       -0.1537483 0.16969031 0.37755933 0.23770022
000010 a0 11 91 3e d6 41 75 3e c4 c3 4f 3e 33 0d 4b be
       0.2833376 0.23950896 0.20289522 -0.19829254
000020 31 8b 67 be 0d 19 11 be b7 54 57 3e 92 e7 e4 bc
       -0.22611691 -0.14169712 0.2102841 -0.027942453
000030 ab 1d 4f bb 3d 31 c6 be 7d 97 67 be 52 f4 27 be
       -0.0031603377 -0.3870944 -0.22616382 -0.16401795
000040 b0 d8 d1 bd 77 10 52 3e 99 9c 41 be 7b 5c 85 be
       -0.10246408 0.20514093 -0.18907394 -0.2604712
000050 8a 57 02 bd 8e 73 94 3d f5 0a b1 be 60 bc 63 be
       -0.031821765 0.07248603 -0.34578672 -0.22239828
000060 32 6c 46 bc f2 10 92 bd dd af 36 3e cc c8 ec 3e
       -0.012110757 -0.07132138 0.17840524 0.46246946
000070 94 21 ec bd 19 e3 cb be dc c0 bc 3c 24 8a d2 3d
       -0.11529842 -0.398217 0.023041181 0.102802545
000080 ee d3 97 be 65 7a 7c be 89 e1 e3 3d 6f b1 14 be
       -0.29653877 -0.24656065 0.11127002 -0.1452081
000090 1a 6c c8 3d 0b 1e 91 3e bd 9d 5b 3e 2e 7c ab be
       0.09786244 0.28343233 0.21446891 -0.3349318
0000a0 ec 2d 03 be bf 23 97 3d ba c2 16 bc ad d8 c0 3e
       -0.12810487 0.07379865 -0.0092017 0.3766531
0000b0 a9 dc 38 be c0 ed 99 3e 2c 38 92 3e ab 80 6e 3e
       -0.18052925 0.300642 0.2855848 0.2329127
0000c0 81 ec 9f bd 23 8d 81 3c 51 fd 01 3e 4b c0 98 3e
       -0.078087814 0.01581437 0.12694289 0.29834208
0000d0 9d 0a d1 3e 63 ee 1c 3e ac 1e ca be 45 75 c3 be
       0.4082841 0.15325312 -0.39476526 -0.38175407
0000e0 8b e0 cb 3d d9 89 2a be 9f dc 19 bf b8 b7 b8 bd
       0.099549375 -0.16654147 -0.60102266 -0.090194166
0000f0 98 a1 19 3e 45 6f f6 3d 5b aa 48 3d e3 40 8e 3e
       0.1500305 0.12032942 0.04899059 0.2778388
000100 14 68 3b be 37 bd a5 3e f8 8a 2f 3e 1f 39 84 bc
       -0.18301421 0.32370922 0.17142856 -0.016140519
000110 15 84 d7 3d 57 71 62 3c d8 8f ee 3d 06 3e 86 3e
       0.105232395 0.013820968 0.1164853 0.26219195
000120 d6 6e 62 3e d5 d3 39 3d 32 bc 49 3e 9e c0 b8 3e
       0.22112593 0.045368034 0.19700697 0.36084455
000130 de a4 fa 3d 86 6c b6 3e 6a 70 ac be 14 ce 2c 3e
       0.12238477 0.35629672 -0.33679515 0.16875488
000140 8c 62 ef 3e 61 db 1b be bf a4 37 3e 59 38 20 be
       0.46754873 -0.15220405 0.1793394 -0.15646495
000150 c0 e1 06 bd 77 aa 8b 3e f4 ba a9 39 3e 4b 90 3e
       -0.032930136 0.27278492 0.00032373483 0.28182405
000160 f8 c5 17 be 8c ee 26 be a0 f5 af 3d 1e 33 d7 3e
       -0.14821613 -0.16301936 0.08591771 0.42031187
000170 d6 93 3b 3e e0 01 3a be 10 9a 17 3d f5 10 93 3e
       0.18318114 -0.18164778 0.03701216 0.28723875
000180 df 27 15 be 5d 43 a4 bd 32 e8 4f be 80 3d 05 3d
       -0.14565991 -0.08020661 -0.20303419 0.032529354
000190 83 3e 58 3e 74 09 23 be b9 27 e5 bc 89 b9 92 3d
       0.21117596 -0.15921575 -0.027973043 0.07164294
0001a0 19 04 53 3d 1a fb d7 bd ad 86 6c be ae 6d 39 3e
       0.05151758 -0.10545941 -0.2309825 0.18108246
0001b0 57 fb 68 bd 94 7a 99 bd af d9 c9 bd 34 61 3a 3e
       -0.05688032 -0.07494083 -0.09855973 0.18201143
0001c0 ec 05 d4 bd 38 17 c7 be 42 6a 1e be 69 2a 80 bd
       -0.10352692 -0.38884902 -0.15470222 -0.06258089
0001d0 d3 ed 05 be 93 f7 27 3e 73 a0 44 3e 62 52 04 3f
       -0.13079004 0.16403036 0.19201832 0.51688206
0001e0 29 2f a5 bd 26 1a 3c be f1 d4 22 be 34 2d 8d 3e
       -0.08065636 -0.1836935 -0.15901543 0.2757355
0001f0 91 d0 82 bd a3 e5 ac 3d 0e da 00 3d a1 f0 a4 be
       -0.06387437 0.08442237 0.031457953 -0.32214835
000200 11 46 ec 3e c5 b2 8c 3e 90 8f 00 3d 50 06 35 3e
       0.46147206 0.2748014 0.031386912 0.1767819
000210 e0 68 44 3e 08 02 62 3e 87 3e 0d be 35 d0 c0 3d
       0.19180632 0.22071087 -0.13793384 0.09414712
000220 b6 9b e7 3e a5 ad 6a 3e 22 1b dc bd 89 d5 06 be
       0.45235986 0.22917803 -0.10747363 -0.13167395
000230 2a 5a 98 3c 74 05 74 3e fd 1f a9 3e 62 bf de bd
       0.018597681 0.23830205 0.33032218 -0.10876347
000240 83 ac 94 be 4d fb 55 3e 27 4c d1 be 43 e2 14 3f
       -0.29037866 0.20896645 -0.40878412 0.5815775
000250 02 42 9e be bb 37 05 3e fa 11 00 3e 77 13 0e 3e
       -0.30909735 0.1300954 0.12506858 0.13874613
000260 c3 eb 8f be 7d 78 e2 3d 1e f3 0e 3e 8b b2 bd 3d
       -0.2810956 0.110581376 0.1395993 0.0926257
000270 e3 eb c7 3e b9 f9 98 3e ea 7d 16 be aa 40 02 3d
       0.39047155 0.29878023 -0.1469647 0.03179995
000280 da a5 13 3e a1 a7 d6 be 4b 3e eb 3d 8e b4 95 bd
       0.14418736 -0.41924766 0.11486491 -0.07309829
000290 14 de 85 be aa 2a 14 be 5d 4a a0 3d 82 2d c2 3e
       -0.26145995 -0.144694 0.07826684 0.37925345
0002a0 29 05 a8 3e b9 a3 35 be 9b f0 a3 3e 9e 50 4e be
       0.32816437 -0.17738236 0.32019505 -0.2014794
0002b0 72 5b 0f be 50 eb ab be 85 74 27 be db 29 d9 3d
       -0.13999727 -0.33577967 -0.16353042 0.106036864
0002c0 a9 a8 13 3e 2c 68 84 3e 55 00 c7 be 45 fe 3c bd
       0.14419807 0.25860727 -0.3886744 -0.046140928
0002d0 bb 7a cb bd 55 c4 ca 3e ba 1c 17 3d d4 d9 5b 3e
       -0.09935518 0.39602914 0.03689263 0.21469814
0002e0 2e 5b 3a bd 66 ce 0a be 18 7c 01 3e e0 c4 a7 3e
       -0.045497112 -0.13555297 0.12644994 0.3276739
0002f0 8f 83 1e be 2f 02 88 3d 63 71 cb bd 4d 67 68 3b
       -0.15479873 0.066410415 -0.09933736 0.0035461963
000300 94 2b 7c be fc 55 4b be 7d bf 09 bf 30 e6 a8 3c
       -0.24625999 -0.19857019 -0.5380781 0.020617574
000310 3e a2 84 3e 1c 50 ed 3e 3f 55 ab 3e b5 4b 19 be
       0.2590503 0.4635018 0.33463475 -0.14970286
000320 eb d3 9d 3d 80 aa f9 3d c9 02 8b 3e 2e 0c ac be
       0.07706436 0.121907234 0.27150562 -0.33603042
000330 a2 1f b7 bd 16 13 6a 3d 18 8d 58 3e 60 94 55 3e
       -0.0894158 0.057147108 0.21147573 0.20857382
000340 54 f6 9a be 18 cb 10 bd 0c b5 27 be dd 07 ce 3d
       -0.30266058 -0.035349935 -0.16377658 0.100600936
000350 95 d6 a9 3b 5a dc 93 bd a8 c2 e6 be ac 31 22 be
       0.005183051 -0.07219763 -0.45070386 -0.15839261
000360 0c 13 87 3d 53 20 cc bd e3 83 ed 3d 80 ea c2 bd
       0.0659543 -0.09967103 0.11597421 -0.095173836
000370 79 4f 21 3e 83 87 a3 3d 8c cc ae be 23 d3 f2 3c
       0.15752973 0.07984831 -0.34140432 0.029641693
000380 5b 39 b1 3d db be 07 3e 34 f9 a9 3e fd 13 0f 3e
       0.08653518 0.132564 0.3319794 0.13972469
000390 85 15 a0 bc 8b 47 20 be 9d 49 48 3c 82 d6 27 be
       -0.019541511 -0.15652291 0.012224582 -0.16390422
0003a0 68 ff eb 3e fa 3a 93 bd 4a 62 a4 bd d4 c7 37 3e
       0.46093297 -0.07188983 -0.0802656 0.17947322
0003b0 75 de 5f 3e b4 83 2a be 02 05 ec 3e 82 cf 2a 3d
       0.21862204 -0.16651803 0.4609757 0.0417018
0003c0 2b 6f a1 be cc 56 75 be 11 17 a6 be ba c1 ee bd
       -0.31530127 -0.23958892 -0.32439473 -0.11658044
0003d0 dc 95 78 3e b5 af 27 3e 1a 2e 1e be ff 5b 88 be
       0.24275917 0.1637562 -0.15447274 -0.26632687
0003e0 be 62 b7 3e 69 12 9f be 72 da c4 3c 11 a6 aa bd
       0.35817522 -0.31068733 0.024029944 -0.08332456
0003f0 2c fc 80 be 20 55 0a be a1 b5 1d be 63 cf bd 3d
       -0.25192392 -0.13509035 -0.15401317 0.092680715

arith.constant2 f4 [41]
000000 83 65 51 bc 18 80 57 bc e6 f0 6d 3d 75 8b b4 3b
       -0.01278055 -0.0131530985 0.058091067 0.0055097886
000010 b4 38 4d 3d 5f 2c 1c 3c 96 4d cb bc 95 60 db bd
       0.050102904 0.009532063 -0.02481727 -0.10711781
000020 2c c8 02 bd 99 ca 12 3c 03 c3 97 bc c8 ef c6 bd
       -0.03192918 0.008959436 -0.018525606 -0.097137034
000030 d0 68 5d bd 1f b7 22 3c 9f 86 43 3d 28 89 0c bc
       -0.054055035 0.009931355 0.047735807 -0.0085776225
000040 db 1f 6f ba cd 84 cc bb fa 32 ab 3c 4d 67 2e bc
       -0.00091218733 -0.006241417 0.020898331 -0.010644746
000050 11 e8 b8 bd 2e 62 15 3d 61 d7 0e bd aa 2c 98 bd
       -0.09028638 0.036470585 -0.03487337 -0.07430394
000060 85 1c 57 bd 32 25 93 bd 20 1e f5 3c d7 57 01 3d
       -0.052517433 -0.07184829 0.029921591 0.03157791
000070 5e 36 3c 3d 70 74 49 bc 6e ba 2b bd 76 e3 5e bd
       0.045950286 -0.012295827 -0.04192584 -0.054416142
000080 ac b6 4e bd 62 ae 82 3d df cf 02 3c e7 bd 5a bd
       -0.05046718 0.06380917 0.007984131 -0.05340376
000090 79 9d fe 39 74 bf 43 be f4 20 91 bc a5 2c 0a 3c
       0.00048563982 -0.19116002 -0.017715909 0.008433496
0000a0 35 a4 ee bd
       -0.11652414

sequential_1/dense_1_2/BiasAdd/ReadVariableOp f4 [64]
000000 9f 2a ef 3c c9 90 b1 bc db 44 44 3d f3 5e dd 3d
       0.029195128 -0.021675484 0.04791723 0.10809126
000010 17 83 44 3d 21 82 b9 bc be db 4a bd ea 6b ee bb
       0.04797658 -0.022645058 -0.04952597 -0.007276048
000020 60 6e cd 3d c6 6a bf 3c 83 62 56 bd 27 d0 8f 3d
       0.10030818 0.023366343 -0.05234004 0.07022124
000030 a3 13 d1 3c ab 0b 68 bd ad 50 da bb e9 48 9e 3d
       0.025522059 -0.056651752 -0.0066624493 0.0772875
000040 20 bb 82 bc 07 38 00 3e f1 eb de 3c 97 41 36 3c
       -0.015958369 0.12521373 0.027212115 0.011124036
000050 5f e1 82 3d bd 02 ba 3d 9a 01 78 3d 55 0e 56 3d
       0.063906424 0.090825535 0.060548402 0.05225976
000060 5b 3c 9e 3d 7f 4e 95 bd be 92 f1 bc 4c 63 21 3d
       0.07726356 -0.072903626 -0.029488917 0.039401338
000070 d0 d7 d7 3d a4 35 2e 3d c2 df f1 bc 7e 7a bc 3d
       0.1053921 0.042531624 -0.029525641 0.09203051
000080 aa 9e 2c 3d cf a9 b6 bd 69 22 17 bd c0 a5 80 3d
       0.0421435 -0.08919107 -0.03689805 0.06281614
000090 43 18 36 3b 1c aa 21 3d ec 31 cb 3d 0c 40 8f 3d
       0.0027785457 0.03946887 0.09921631 0.06994638
0000a0 32 ee d9 bd 65 41 d2 3d 8d 8d 25 3b 65 84 03 bd
       -0.10641135 0.10266379 0.0025261373 -0.032108683
0000b0 1e 9b cf 3c 5f 98 1b 3b 2f 73 d0 3d 8a 13 fc 3c
       0.02534252 0.0023741943 0.101782195 0.030771036
0000c0 29 f2 65 3d 0c 18 05 3d 3d be 67 3c fd c9 ff bd
       0.056139145 0.032493636 0.014144477 -0.12489698
0000d0 aa ee 8c 3d d8 cf 1c 3d 6a 07 e8 3d f3 c0 00 3e
       0.06881459 0.038284153 0.11329539 0.12573604
0000e0 6f a5 00 3c 23 2e 13 3e a5 b6 d7 3d aa 3b 34 3c
       0.007851942 0.14373069 0.105328836 0.011000553
0000f0 95 bd 06 3e 21 df 39 bd d5 d2 8a 3d 2c cc d4 3d
       0.13158257 -0.045378808 0.06778494 0.10390505

sequential_1/dense_1/BiasAdd/ReadVariableOp f4 [128]
000000 82 76 53 3d e4 a7 3f bd c2 66 03 3d 11 3c 24 bb
       0.05162669 -0.046790972 0.03208042 -0.0025060216
000010 bb a8 6b 3d 59 9a b4 3d 82 12 e5 3c e7 32 b5 3d
       0.05753396 0.08818502 0.027962927 0.088475995
000020 1b ba 22 3e 77 3a be 3d c2 9f 8c 3d 47 90 e1 3d
       0.15891306 0.09288495 0.06866409 0.11013847
000030 45 f4 3d 3d 4f 32 0a 3e 00 b8 a5 3d e3 84 18 3e
       0.04637553 0.13495754 0.08091736 0.14894442
000040 16 b3 6a 3e 1d b2 d4 3d 73 0a a3 3d 1b bb 0d 3e
       0.22919878 0.10385535 0.079609774 0.13840906
000050 d1 c6 32 3e 1d 91 fb 3c 5a 8c 37 3e 74 55 72 3d
       0.17458655 0.030708844 0.17924634 0.059163526
000060 81 3a 46 3d 26 9c ac 3c cf 3b 8e 3c a4 1a cb 3d
       0.048395637 0.021070551 0.017362503 0.09917191
000070 7f 8b 08 3d e5 cc 8e 3d dc 94 ce 3d 80 f5 de 3c
       0.03333616 0.06972674 0.100869864 0.027216673
000080 2f de a5 3d 4c 57 ea 3d 06 f7 8a 3c 7d 55 02 3e
       0.08099019 0.11442432 0.016963493 0.12727924
000090 14 76 ce 3d 24 b8 3c 3e c1 f8 45 3e dc 11 cb 3d
       0.10081115 0.18429619 0.19333173 0.09915516
0000a0 97 c0 01 3e 9c e9 ea 3d 19 47 07 3e f4 dd 15 3e
       0.12671123 0.11470339 0.13210715 0.1463545
0000b0 95 c9 d8 3d e8 a0 0f 3e 92 c4 b0 3d 0c 17 fb 3d
       0.10585324 0.14026225 0.08631243 0.12260255
0000c0 33 56 1c bb e5 83 3f 3d 4f 92 fd 3d 22 19 d7 3d
       -0.002385509 0.046756644 0.12381422 0.105028406
0000d0 d6 c0 f1 bc e6 9f 72 3d 06 9b b3 3d c4 2a 54 3e
       -0.029510897 0.059234522 0.08769803 0.20719439
0000e0 ee 46 13 3e b2 e4 71 3d a1 34 12 3e 55 3a 5e 3d
       0.14382526 0.05905599 0.14277889 0.05425485
0000f0 23 19 29 3d c9 69 b7 ba 99 4f fd 3d dd 18 51 3d
       0.041283738 -0.0013993318 0.12368698 0.051049102
000100 78 bb ae 3d c5 d6 29 3d f2 5c 4e 3e 3a 5c d6 3d
       0.085318506 0.041464586 0.20152643 0.104668096
000110 58 9f 15 3e 24 c2 91 ba a2 39 bd 3d 79 c7 c4 3d
       0.14611566 -0.001112048 0.09239508 0.09608359
000120 44 63 0a 3e 3b d5 f1 3d b0 1f 0a bd 22 de 87 3d
       0.1351443 0.118082486 -0.033721626 0.06634165
000130 df cc 39 3e a8 93 0a 3a 1b 64 52 3e 2d 08 d7 3d
       0.18144558 0.0005286285 0.20546 0.10499606
000140 c6 95 d7 3d 60 60 3c 3e df 8a 91 3d 53 72 28 3e
       0.10526614 0.18396139 0.07106566 0.16449861
000150 8d e1 54 3e 3b c8 bd 3d ba 11 0c 3e e3 dc 39 3e
       0.20789166 0.092667066 0.13678637 0.18150668
000160 93 a2 8f 3d fa 32 9a 3d 35 65 2c 3d 69 37 62 3e
       0.070134304 0.07529254 0.042088706 0.2209145
000170 5d 7a d1 3c 4a 93 15 3d f7 ce 66 3e b3 d8 b6 3d
       0.025571043 0.03651742 0.22539888 0.08928051
000180 85 f3 ce 3d 08 55 2f 3e 4f 5a b7 3d 91 dd 60 3d
       0.101050414 0.1712228 0.08952772 0.054898802
000190 a0 c0 67 3d 46 17 07 3d 03 32 21 3e a0 50 d2 3d
       0.056580186 0.03298118 0.15741734 0.10269284
0001a0 6f 04 bf 3d 1c 07 e4 3d ef 62 11 3e e0 93 44 3e
       0.093270175 0.111341685 0.14197896 0.19197035
0001b0 41 ed 29 3e bf 49 df 3d 1e ed 0f 3c d6 4a a5 3c
       0.16594411 0.10902738 0.0087845605 0.020177286
0001c0 12 8c e2 3d 81 63 5a 3e c4 73 38 3e 10 9d cb 3d
       0.110618725 0.2132702 0.18012911 0.09942067
0001d0 98 b7 b6 3d 07 db db bc 12 c7 96 3e c0 cc 78 3d
       0.089217365 -0.026837839 0.29448754 0.06074214
0001e0 e9 75 e2 3d 48 e2 d1 3d c9 d0 1e 3d eb b9 04 3d
       0.11057646 0.10248238 0.03877333 0.032403868
0001f0 0a f1 18 3e 28 a8 04 3b 65 c1 7b bd b9 6c 34 3e
       0.14935699 0.002024183 -0.061463732 0.176196

sequential_1/dense_1/MatMul f4 [128, 132]
000000 29 30 8a 3e 09 be 24 3e 3b 68 ae 3d f7 20 18 be
       0.26989868 0.16088118 0.08515974 -0.14856325
000010 01 b7 86 be c8 f4 d1 3c 0d 10 23 be b2 03 a0 3e
       -0.26311496 0.025629416 -0.15924092 0.3125282
000020 00 4c 1b be d1 be a8 bd 88 25 a3 3e 87 7e cb 3e
       -0.1516571 -0.0823952 0.31864572 0.3974497
000030 e1 23 5f be d7 9d 6d bd fe d7 ac 3e 6b 61 c7 3c
       -0.2179103 -0.058011856 0.3375854 0.024338445
000040 79 5d 97 3e 3b 76 c4 bd a2 86 11 3e dc 6e 14 3d
       0.295635 -0.09592863 0.14211515 0.036238536
000050 9d e7 5e 3e 67 1f c8 bd a4 f7 2c 3d b3 44 82 3e
       0.21768041 -0.097716145 0.042228356 0.25443038
000060 a1 98 31 be 9e ad c2 3d 0d a6 48 3e 31 87 b3 3e
       -0.1734338 0.09505771 0.19594593 0.3506408
000070 b1 07 99 be 22 d3 a5 be cf fb 68 3d f7 7a 78 bd
       -0.2988868 -0.32387644 0.05688077 -0.060664143
000080 69 bf 84 be e9 59 31 3d 8e 61 d7 3d de 53 51 3e
       -0.25927284 0.043298636 0.10516654 0.20442149
000090 44 b2 25 3e b2 3f 0c 3d 11 3d 2a be ed 75 15 3b
       0.16181284 0.034240432 -0.16624857 0.0022805885
0000a0 50 b3 e2 be c8 f6 c3 bd 39 20 17 3e 72 1c 1f be
       -0.4427743 -0.09568554 0.14758386 -0.15538195
0000b0 cf 9e d3 bd 7d b5 7f bb 93 e3 ca 3e 88 f8 81 3e
       -0.10333025 -0.0039018088 0.3962675 0.25384927
0000c0 4f 43 2e 3d 61 02 2a 3e b0 6d 17 be 05 f1 f3 3e
       0.04254466 0.1660247 -0.14787936 0.4764482
0000d0 bc b8 32 3e 99 6a 11 3d 7e 6e 89 be d1 9d 4c be
       0.17453283 0.03550205 -0.2684211 -0.19982077
0000e0 e5 95 c1 bd 23 e6 82 3e bc fa 23 be 9a 9f 8f 3e
       -0.09452418 0.25566205 -0.16013616 0.28051454
0000f0 58 74 fc 3d e3 30 2a 3e 62 2f a8 bd 22 be cb 3d
       0.12326878 0.16620211 -0.082121626 0.09948374
000100 bc d9 25 3f de d0 95 3e ba 36 5f bc 34 c6 64 3e
       0.6478536 0.29260916 -0.013623888 0.22341233
000110 4b 50 83 3d da f6 4f be 2f dd 97 be 6e 3d 19 3e
       0.06411799 -0.2030901 -0.29660937 0.1496484
000120 0a d7 8c be 50 5d 36 3e 1f ff 86 be 23 f1 a2 3e
       -0.27507812 0.17809033 -0.26366517 0.31824598
000130 1e af 5f be 70 87 1f be db 74 5e be f1 7a a2 3d
       -0.21844146 -0.15579009 -0.21724264 0.079336055
000140 c2 1c ee 3d bf 63 c0 3e 34 56 38 be 7f fa e8 3c
       0.11626579 0.375761 -0.18001634 0.028439758
000150 78 f0 b9 3c f2 2f 22 3e 92 76 0e 3d b1 1e 36 be
       0.022697672 0.15838602 0.034781046 -0.17785145
000160 7f 3a 3a be 9c cb 95 be e3 96 6e 3e 76 81 af 3d
       -0.18186377 -0.29256904 0.23299746 0.085696146
000170 22 1a 18 3e ac d1 cb bc b7 de a7 bc b4 b7 b8 be
       0.14853719 -0.024880253 -0.02049194 -0.36077654
000180 be df 5d be bc 97 8b 3e 50 fc de 3c a9 e0 9f 3d
       -0.21667382 0.27264202 0.027219921 0.078065224
000190 d6 79 54 bd 66 27 96 3d b9 31 6d 3d bb 48 ef bd
       -0.051874004 0.073317334 0.057908747 -0.11683794
0001a0 ab 10 82 3e 67 ec 11 be fd 02 82 be b9 d5 ce bd
       0.25403342 -0.14250337 -0.25392905 -0.10099358
0001b0 ae cb 24 3e 3e dd c3 be 5f 62 2b be b5 cd b3 3e
       0.16093323 -0.38254732 -0.16736744 0.3511788
0001c0 9b ac 53 3e 62 54 6b 3e 2f 80 7a 3e af 8f 2a 3e
       0.20671313 0.22981408 0.2446296 0.16656373
0001d0 1b db 49 3e 20 39 2d 3e a5 3f a1 3e a2 2d d2 3e
       0.19712488 0.16916323 0.3149387 0.4105044
0001e0 9a bc bc 3e 09 1a 8e be e9 8e d5 3d 60 93 a2 3e
       0.36862642 -0.27754238 0.104276486 0.31753063
0001f0 9a 1a 71 3c 58 e6 80 be b5 cc 65 3e ce a9 49 bd
       0.014715815 -0.25175738 0.22441371 -0.049234204
000200 0a a8 6a 3e 77 55 4b bd e3 33 31 3d 88 fd 51 be
       0.22915664 -0.049642053 0.043262374 -0.20506871
000210 e7 db 19 bd 98 ca 4d bd 4e 62 83 bd ef 84 b1 be
       -0.03756323 -0.050242037 -0.064152345 -0.34671733
000220 1a c3 3f be cf cd 47 bc 4c 30 3d 3d 96 d7 65 3e
       -0.18726769 -0.012195065 0.046188638 0.22445521
000230 cc 59 1c 3e 56 de c1 bd 85 dd fc bd f6 27 96 3c
       0.1526863 -0.09466235 -0.12346939 0.018329602
000240 d2 0e 3c 3d dd 45 42 be f2 f1 19 3e ac 43 ef 3c
       0.04591257 -0.18971963 0.15033701 0.029207073
000250 2f ad da bd 9c 0e 83 3d e9 cd 17 3e ec 94 0a 3e
       -0.106775634 0.06399271 0.14824642 0.13533372
000260 0b b0 b8 3d 4c 64 94 be 3c 41 0e 3d fb d8 4d 3e
       0.090179525 -0.2898277 0.03473018 0.20102303
000270 f9 db 4c bd 81 47 5c 3d a0 44 35 bd f8 c4 26 be
       -0.05001447 0.05377913 -0.0442549 -0.16286075
000280 1f 14 3b 3e 02 9c 30 be ab 49 40 3e 08 4b 8a 3e
       0.18269394 -0.17247012 0.18778102 0.2701037
000290 f8 36 08 3e a2 97 cc 3d d0 7f 4d bd 52 26 01 bd
       0.13302219 0.09989859 -0.05017072 -0.031530686
0002a0 ba 2b 6f 3e c5 2f 5f be 6a 24 cd 3d c1 e8 bb 3e
       0.23356524 -0.21795566 0.10016711 0.36701015
0002b0 f6 24 77 be 0e 46 de 3d ef 71 f9 3d 00 a2 d8 bd
       -0.24135193 0.108532056 0.12179934 -0.10577774
0002c0 99 f4 91 3d f7 14 92 bd 8f 12 84 be cd 59 52 3e
       0.071267314 -0.07132905 -0.2579541 0.20542069
0002d0 ae aa fe 3d a7 f2 39 be 7a c7 d2 3c 75 25 98 bd
       0.12434898 -0.18158971 0.025729883 -0.07429019
0002e0 f9 bc 87 3d ba 50 cd bd 0c 36 4f 3c 06 a6 f3 be
       0.066278405 -0.10025163 0.012647163 -0.47587603
0002f0 5f a0 01 3e dd 5b 4a be 1d 80 cd bb 09 e4 ea bd
       0.12658833 -0.19761606 -0.006271376 -0.114692755
000300 12 b7 c8 bc c1 ed 13 3e 9b ff 1f 3e 6d a0 74 be
       -0.024501357 0.14446165 0.1562485 -0.23889323
000310 d2 de 93 3c 6f 0b 10 3e be 5c 9e 3e ee b3 e4 3d
       0.018050585 0.14066862 0.30930132 0.11167131
000320 c6 b8 17 3f 80 8d 90 3e bd 11 6a 3c e7 68 3c be
       0.59266317 0.28232956 0.014286456 -0.18399392
000330 5e 3c c4 3e 44 83 15 be ab a1 57 bc 1d 62 37 3e
       0.38327307 -0.14600855 -0.013161103 0.17908521
000340 cb 73 96 bc 6b b2 23 be 64 f6 18 be 82 77 34 3d
       -0.018365761 -0.1598603 -0.1493774 0.044059284
000350 72 44 a8 bd 17 6c e0 bd 29 81 77 bc 5e 44 6c be
       -0.0821618 -0.109581165 -0.015106478 -0.23072955
000360 68 14 5b bd 20 9a 07 be 8f df 68 3e 98 56 82 3d
       -0.053486258 -0.13242388 0.22741531 0.06364173
000370 f5 aa b9 bd 7f a7 98 bd 3d 3a f7 bd a7 e2 ee bd
       -0.090658106 -0.07453822 -0.12071655 -0.11664324
000380 4e ab 8d 3e ec 1c ab 3c 2d d1 85 3e 99 be 2b be
       0.27669758 0.020887814 0.2613615 -0.16771926
000390 89 bc 02 3e 6e 8d 69 be 9a 85 3e be e6 9a fd 3d
       0.12767233 -0.22807857 -0.18605652 0.1238306
0003a0 90 31 1b be 78 61 85 3d a1 c6 20 be 61 db 51 bd
       -0.15155625 0.06512731 -0.15700771 -0.051234607
0003b0 39 d9 9b 3d 74 b8 16 be 29 df 63 3e 43 37 9f be
       0.07609791 -0.14718801 0.22253098 -0.3109685
0003c0 43 47 27 3e b2 e6 b3 be e5 2a 14 bd 10 c8 83 3d
       0.16335778 -0.35136944 -0.03617372 0.06434643
0003d0 06 21 32 3e 63 d7 38 3d 24 07 97 bd 79 16 17 3e
       0.1739541 0.045127284 -0.07374409 0.14754666
0003e0 2e e9 e7 bd ad 95 88 3e 2c 0c 1d 3e f1 65 ab 3d
       -0.11323772 0.26676694 0.15336674 0.08369053
0003f0 4d 76 ac 3e 6f 4d 21 3d 69 00 c9 3d 78 88 40 be
       0.33684006 0.039380487 0.09814531 -0.18802059
